RPPOOP/HandGestureRecognition/model/keypoint_classifier/keypoint_classifier.tflite (tflite, 6532 bytes, 6 tensors)

sequential/dense/BiasAdd/ReadVariableOp f4 [20]
00000000: 5324 77bf a913 dabe 5a63 19bf b497 2bbf
00000010: 0bee 6dbf 2030 23bf 8e94 0ebf daa6 28bf
00000020: 1d56 03bf 8257 23bf f54d 03bf 556c 43bf
00000030: 7cf7 2cbf 166d eabe ad50 d5be 4bd1 4fbf
00000040: 0d00 14bf d8a1 f3be 488e a2bd fa92 d2be
-0.965398 -0.42593125 -0.59917223 -0.67028356 -0.9294135 -0.6374531 -0.55695426 -0.65879595
-0.51303273 -0.638054 -0.5129083 -0.76337177 -0.6756513 -0.4578635 -0.41663113 -0.8117873
-0.5781258 -0.47584414 -0.07937294 -0.4112776

sequential/dense_2/BiasAdd/ReadVariableOp f4 [5]
00000000: 3cee a9be e594 b13d f142 fa3e e243 883e
00000010: f823 b0be
-0.3318957 0.086709775 0.48879197 0.2661429 -0.34402442

sequential/dense_1/BiasAdd/ReadVariableOp f4 [10]
00000000: 456d 673e 4886 3e3e 0ef4 223f ab9e 94bd
00000010: ce90 a13e 9520 b6be eff5 e43d bccc 113f
00000020: a598 fa3e 600f 053e
0.22600277 0.18605912 0.6365365 -0.07256826 0.3155579 -0.35571733 0.111797206 0.56953025
0.48944584 0.12994146

sequential/dense/MatMul f4 [20, 42]
00000000: a87b 6e3e 3252 efbd e5aa 64bf 5b9f 19bf
00000010: c6ea 02bf bbe2 62be 67a2 40be 1f62 79be
00000020: 8148 833d 942d a8be 63d6 43be e922 f9be
00000030: ab65 cbbd 7552 4abd 95cf 77bc 6cd0 463e
00000040: 8bdb 8a3d 206c 0d3e 8f5c 8fbe 0c18 49be
00000050: 4237 9f3d f846 cfbc 2104 853d 20ba 0c3e
00000060: 3bd7 ad3c f8c2 a83d a0c0 e9bd 8634 86be
00000070: 8cc0 3a3b 6aa8 ebbd 9eca 143d f119 dfbb
00000080: e4a6 1fbd fd2b d3bb 8dba 8abe fe9e 0cbe
00000090: a2ad e33c 83a9 70be 5f7b ed3b 0785 b1bd
000000a0: 12ea a9bc 5a1b dcbd d831 9b3e c797 98be
000000b0: f621 bebd 271f 27bd 8d80 abbd b597 10be
000000c0: a85d 92be 2c24 f0bd 48be 7ebf 515f a3bd
000000d0: 57e7 2ebd 5fc5 c73c dadd 003e c963 263d
000000e0: 016b 1f3e 236c 8e3b ce1d 293e 9085 a43d
000000f0: 54d7 5dbe 0b8d 363d de80 ae3d a050 673d
00000100: 7299 253e 5370 88bb 4b26 6f3e 0dba 70bc
00000110: eafc 90be 86e1 643d e1ab 2c3d 89be 2a3d
00000120: 63ce b43e 57fb 523c 079a 103f 2444 243e
00000130: e193 aabe c52d c73d 74bc b13d bf6a b03d
00000140: 33cc 983e 5004 133e d6b5 133f db7b 263e
00000150: a0e4 183d f025 b83d 8ec8 ed3d 269a 1a3e
00000160: 14eb 873d c3be 04be 440a 653c 6b7e 66be
00000170: fef7 8a3b ab5e 84bf d463 10be 4456 743d
00000180: 7152 e13c 1c3a d93c 3007 c03b 06ce 19bd
00000190: 3d03 0ebe c2b2 acbd f714 17be b8be b23c
000001a0: eac5 953d 8486 c93c a231 c5bb e6ee fbbc
000001b0: 785d 0ebe e065 aabc 7153 cdbd 21a4 1fbd
000001c0: 1985 0f3e 1ca0 0c3e 1f49 163b 6ea5 be3e
000001d0: a4ee 59be 3712 3d3f 6aee b7bc dfa3 c2bd
000001e0: f300 103e f1a7 833e f5d2 1c3e 335d f53e
000001f0: 204b 21bd ff60 5a3f a608 4abe 14f2 623e
00000200: d4f3 6cbe ff3f 21bc dfbf bbbe d15c 35be
00000210: 8184 a6be b1f7 83be f225 89be 31a5 c13c
00000220: 35b6 4cbf bfd6 18be 1c5c 46be 94d3 1fbe
00000230: 6055 4c3e babb 32bd 40e2 983e c706 e7bc
00000240: 6101 50bf e19a fdbd a81c d1bd 4f2c 003c
00000250: 2151 b33e c71e 8c3d b9cd c43e 8554 453d
00000260: 506f 43bf fbd6 87bd e7af 02be 65f1 2abc
00000270: dfa7 903e 73f5 003d 6312 6a3e e8d1 2fbd
00000280: 8d55 96be 2d7e afba eade 83bd 780c 8e3d
00000290: ebd0 543e 4180 523d 7f30 533e c4aa 143d
000002a0: c4e8 983e ace8 b6bd 8f86 893f 2f2a 673e
000002b0: 9e12 4c3f 32cb 34bd 24d2 123f 4fac 0e3c
000002c0: 831f 093f 3f23 a6be a660 df3d 9a22 873e
000002d0: f735 233e 68cb 743e 4e93 cb3d ce5c c63d
000002e0: e361 1abd 748f 023d afe9 0cbd 72eb 703e
000002f0: 5a92 043e 4f0d d13d 2d85 94bd 9a0f 243e
00000300: f853 c7bd 7694 9bbc da41 94bd 050e 5d3d
00000310: e2bd 953e 7667 8dbd 7c09 bd3d 89c7 96bd
00000320: b8ed 103e 344e 9ebe 626e 28ba 6822 4ebe
00000330: e406 253e 1521 23be 65c4 d8bc 3571 22be
00000340: 65e8 0bbe 8b84 92be d447 943e 58ab 0c3d
00000350: 135e febc bc4b 4e3e 23de 093c 9853 3d3e
00000360: 9486 b63c 6675 8a3d 8831 563d 17d7 f5bd
00000370: 1c69 3e3d 4645 143d 64ce c8bd 839b 663d
00000380: 1fab 33bc d009 5c3d 16f8 4abd b440 953b
00000390: c285 183d c019 cc3d 1f8d e13d 95b5 2a3d
000003a0: 9024 fa3d a7bd f83a 4607 33bd b62a e5bc
000003b0: 1861 a93d 88d6 323e 58c2 c03d 37e7 723d
000003c0: c589 66be 4989 98be 6289 e7be 8dcf e1bd
000003d0: 8768 ac3d 231d 843e a7ab 723d 88b3 d53d
000003e0: 5025 d33d 8433 96be 916f 6ebe b74d 98bf
000003f0: 021c aabd e8b5 7c3e caf5 3fbf 502c 953e
0.23289359 -0.116855994 -0.89323264 -0.6000878 -0.51139486 -0.22156803 -0.18811952 -0.24353836
0.064103134 -0.32847273 -0.19124751 -0.48659447 -0.09931501 -0.049395043 -0.015125175 0.19415444
0.06780156 0.13810778 -0.28000304 -0.1963808 0.077742115 -0.025302395 0.06494928 0.13742876
0.021220794 0.08240312 -0.114136934 -0.26211947 0.0028496115 -0.11506732 0.036326043 -0.0068085124
-0.03897752 -0.006444453 -0.27095452 -0.13732526 0.027792756 -0.23502164 0.007247373 -0.08667951
-0.020741496 -0.107474044 0.30311465 -0.29803297 -0.09283821 -0.040801194 -0.083741285 -0.14120372
-0.2858708 -0.11725649 -0.99509096 -0.079771645 -0.04270109 0.024386106 0.1258463 0.040622506
0.15568163 0.004346387 0.16515276 0.080332875 -0.21664172 0.044568103 0.08520673 0.056473374
0.16171816 -0.0041637807 0.23354451 -0.014692795 -0.28317958 0.05587914 0.042156104 0.041685615
0.3531371 0.012877307 0.5648503 0.16041619 -0.33315948 0.09725527 0.08678523 0.0861411
0.29843292 0.14357114 0.57699335 0.16258185 0.03732741 0.08991611 0.116105184 0.15097865
0.066366345 -0.12963395 0.013979498 -0.22509162 0.0042409888 -1.034139 -0.14100581 0.05965258
0.027505131 0.026516967 0.005860232 -0.037549995 -0.13868423 -0.08432533 -0.14754091 0.021819457
0.0731314 0.024600275 -0.0060178796 -0.030753564 -0.13902843 -0.02080053 -0.10025681 -0.038974885
0.14015616 0.13732952 0.0022931767 0.37235588 -0.2128244 0.7385592 -0.022452552 -0.09503912
0.14062862 0.25714067 0.15314849 0.47922668 -0.039378285 0.85304254 -0.19729862 0.22162658
-0.23139888 -0.009841918 -0.36669824 -0.17711188 -0.32522967 -0.2577491 -0.26786762 0.02363834
-0.79965526 -0.14925669 -0.19371074 -0.15608054 0.19954443 -0.04363606 0.29860115 -0.028201474
-0.81252104 -0.123830564 -0.10210544 0.007823064 0.35022834 0.06841808 0.38438204 0.048176307
-0.76341724 -0.06632801 -0.12762414 -0.0104335295 0.28253075 0.03148408 0.22858576 -0.04292479
-0.29362145 -0.0013389044 -0.06439002 0.06935972 0.20782821 0.051391844 0.20623969 0.036295667
0.29865086 -0.089310974 1.0744189 0.22574686 0.7971591 -0.044139095 0.573519 0.008708074
0.5356371 -0.32448766 0.10907106 0.26393586 0.15938555 0.23905718 0.099402055 0.0968567
-0.03769101 0.03187509 -0.034402546 0.23527315 0.12946454 0.102076165 -0.07251964 0.16021577
-0.09732813 -0.01899169 -0.07239123 0.05396845 0.29246432 -0.06904499 0.092303246 -0.07362277
0.14153183 -0.3091904 -0.000642514 -0.20130312 0.1611591 -0.15930589 -0.026460836 -0.15863498
-0.1366287 -0.28616747 0.2896105 0.034343094 -0.031050717 0.20146078 0.008414778 0.1848892
0.022280969 0.06760673 0.05229333 -0.12003916 0.04648696 0.036198877 -0.09804991 0.05630065
-0.010966091 0.053720295 -0.049553 0.0045548324 0.037236936 0.09965849 0.11013245 0.041677076
0.12214005 0.0018977419 -0.04370811 -0.027974468 0.08270472 0.1746465 0.09412068 0.059302535
-0.22513492 -0.2979224 -0.45222002 -0.11025915 0.084183745 0.2580348 0.05924573 0.104346335
0.10309851 -0.29336178 -0.23284747 -1.1898717 -0.08306123 0.24678767 -0.7498442 0.2913537

sequential/dense_1/MatMul f4 [10, 20]
00000000: ce67 78be 9dcc 903f f6bc 9e3f 1347 d43e
00000010: 2539 cb3e a0e4 b9bc 7fd0 0f3d 8c01 5c3f
00000020: 25f7 30bd 6248 403f 0aaf 3f3f 6078 c93e
00000030: d6d2 e23d f68e 303d 6315 893f 9332 4cbd
00000040: 728f e03e 79f4 dd3c a26b 803e 94bd 353f
00000050: 6291 b43e 246b bf3e b203 553e b9b4 063e
00000060: 7846 43bf 6a64 043f 326f 983f 0eb9 833e
00000070: f8ba 633f 1d3f d63e 244c 483f 1a3f 47be
00000080: 4f22 74be 8eaa ca3a 93a8 58bd 97c5 5bbe
00000090: 441c 463f ba09 303f beeb 7bbe 520d 3bbc
000000a0: 1be7 e3be 7d03 0fbf 84de 8dbe b4c0 eebf
000000b0: 4ab8 d0be 4e84 a6bf 0580 16bf b73e f0be
000000c0: 44ba 76bf 14e7 87bf 5359 50bf b9fe 3abd
000000d0: 4af0 20bf 671e ae3e 98e9 4e3f 5aa2 e03d
000000e0: 07fb 40bf d2f2 80bf 504d 26bd 18ae 543e
000000f0: 2337 1cbe cae0 c03e 8db6 41be 435d 423d
00000100: eb88 f03e 87a0 3a3e 9a21 13bd d79a 2e3d
00000110: f14d 6d3e af50 63bf 90cc d8be 00b0 5ebe
00000120: 0bac 093e 1f2e a23e 4589 433f 99a2 18be
00000130: e758 0c3f 0558 063f 2166 2b3d 9e9d dd3d
00000140: f2f3 6a3f 1f87 1d3d a90f 0fbe 6c3b 013f
00000150: 0efc e93e 2a70 83bd 4b8f 483e 6088 13bf
00000160: e12b 9bbe fa02 a83c 31f1 fabd edfa 1a3f
00000170: 7f30 623f 85e6 02bf a09b 89bc 52d6 883f
00000180: 35d1 74be 75e6 5ebf d32f d1bd b3a1 88be
00000190: 3397 bd3b f429 81be dd34 253f 1a69 39be
000001a0: c53f 8e3e adf5 1a3f 77fb 23bf 650a 863f
000001b0: b425 3fbe df04 203f 19c6 de3d 4a4b ab3e
000001c0: 48d1 e83e 22f6 373d b32f b8ba 5f96 ba3e
000001d0: 02c3 c33e 6aed 983f c19a 85be 9e5f 473e
000001e0: 156c 56be 299e c13e b536 ff3e e882 753e
000001f0: 2ce6 193f 6e6c b33d e7f1 843c 443a 7e3e
00000200: 83c1 4f3e d7f1 b53e 50a4 a43e a863 153f
00000210: 65d2 973e 40dc 243d 0469 713f fe1a 873e
00000220: 7a88 393f 7059 3a3d 97b4 653f c036 d23c
00000230: 992e 383e fa4d 6ebf 0715 08bf bead c1bc
00000240: c1c9 ef3d d853 493f a673 d5bd 1654 f4bd
00000250: 907d 4d3f f083 cf3d 37fa 5e3d 78e9 3a3e
00000260: 755a aabd e206 c43f 4722 6d3f 52f9 89bd
00000270: 3aaf a4be f8fd bf3f 1e4d 45bf b364 2b3e
00000280: c078 a0be f2cc 58be 3d1c 083e 1901 093e
00000290: 9449 50be 0cba 7cbd 202b fdbd eb52 1b3f
000002a0: ddeb 89bd 3e96 4bbd 827d 0bbf 906c 083f
000002b0: 88b3 41bf e709 71be a2d4 aa3f 64b2 083c
000002c0: 0bad fa3d 6a0e 4cbe 5c90 fb3e c9b0 f03e
000002d0: 563b c53e 6a68 47be 7b34 e1bd 2e19 333f
000002e0: fd2c 083f 1d44 22be b509 1a3e 24dc 483f
000002f0: 5a8f 25bf 5195 abbc b5e2 0fbf e334 503e
00000300: 789c 4f3f efe1 3ebf 662f ccbe 2755 7a3f
00000310: 0624 3b3f dc96 9abf 3c3d 1dbd 6ced 1a3f
-0.24258348 1.1312443 1.2401416 0.41460475 0.39692035 -0.022692025 0.035110947 0.8593986
-0.043204445 0.7511045 0.74876463 0.3934965 0.1107537 0.04310509 1.0709652 -0.04985292
0.4385944 0.027094113 0.25082117 0.709924 0.35267168 0.3738643 0.20802191 0.13154878
-0.762794 0.5171572 1.1908934 0.25727123 0.88957167 0.41845027 0.7824118 -0.19457665
-0.23841213 0.0015462206 -0.05289514 -0.21462093 0.7738688 0.6876484 -0.24601647 -0.01141675
-0.44512257 -0.558647 -0.27708828 -1.8652558 -0.407656 -1.3009126 -0.5878909 -0.46922848
-0.9637797 -1.0617394 -0.813863 -0.04565308 -0.6286665 0.3400757 0.80825186 0.10968466
-0.7538304 -1.0074103 -0.040601075 0.20769536 -0.15255408 0.376715 -0.18917294 0.047452223
0.4697946 0.18225299 -0.035920717 0.042628136 0.23174264 -0.8879499 -0.4234357 -0.21746826
0.13444535 0.31675813 0.7638133 -0.14905776 0.54823154 0.5247806 0.041845445 0.10821079
0.9177848 0.03845894 -0.13970818 0.50481296 0.45700115 -0.06417878 0.19585912 -0.57629967
-0.30306914 0.020509232 -0.12253035 0.6053913 0.8835525 -0.51132995 -0.01679784 1.0690405
-0.23907931 -0.870704 -0.102142 -0.26685867 0.0057858466 -0.2522732 0.6453379 -0.181065
0.27783027 0.6053112 -0.6405558 1.0471922 -0.18666726 0.6250743 0.10877628 0.33455878
0.4547217 0.044912465 -0.0014052301 0.3644285 0.38234717 1.1947453 -0.2609463 0.19470069
-0.20939668 0.3781598 0.49846426 0.23975718 0.6011684 0.08760916 0.01622863 0.24826914
0.20288663 0.35536072 0.3215661 0.5835519 0.29652706 0.04024911 0.94300866 0.2638778
0.7247387 0.04549545 0.89728683 0.025660872 0.17986526 -0.9308773 -0.53157085 -0.023642417
0.117084034 0.7864356 -0.10422449 -0.119301006 0.8026972 0.10132587 0.054437842 0.18253124
-0.083180346 1.53146 0.9263043 -0.06737007 -0.32164937 1.499938 -0.77070796 0.16737632
-0.31342125 -0.2117193 0.13292022 0.13379325 -0.20340568 -0.061700866 -0.12361741 0.606734
-0.067344405 -0.04970383 -0.54488385 0.53290653 -0.7566457 -0.23538934 1.334614 0.008343313
0.122400366 -0.19927374 0.49133575 0.47009876 0.38521832 -0.19473425 -0.10996338 0.69960296
0.53193647 -0.15846296 0.15042765 0.7846091 -0.6467186 -0.020945223 -0.562053 0.20332675
0.8109813 -0.745635 -0.39879912 0.9778618 0.7310184 -1.2077289 -0.038388476 0.6051853

sequential/dense_2/MatMul f4 [5, 10]
00000000: 735f 4c3f 8f24 e33d 793e 5ebf 1a4a 0b3f
00000010: 0642 85bf 08d0 063d 9069 4d3f 5842 193f
00000020: 17c3 cebe 008f 72bf ce76 2bbe 7ae4 03be
00000030: b043 64be b770 a73e b737 ef3e 99ab 69bb
00000040: 593b a93d aa8f e8be c648 cebd b01c 6e3f
00000050: a60a db3e 69c4 dabf 78bc ab3f 8269 cfbe
00000060: 997f 52bf e6d5 e6bf 7420 2b3c a204 2c3f
00000070: aff0 9b3b fffb 70bf 8599 0fc0 f6b4 203f
00000080: 81ee 45bf fd0f 15bf c27c 57bf 2a24 683e
00000090: cfef cabf 00f8 823f 3264 cdbf d5b5 5fbf
000000a0: e1eb 1f3f 2dbb 86be f888 dbbd 3f39 74bf
000000b0: 0940 0b3f 063f 953e ddb6 3ebe a1b5 edbf
000000c0: bf9c c4be b656 2e3f
0.79833144 0.110909574 -0.86814076 0.54409945 -1.0410774 0.032913238 0.802392 0.5986686
-0.40383217 -0.9474945 -0.16744539 -0.12880126 -0.22291446 0.32703182 0.46722195 -0.0035655259
0.08263273 -0.45422107 -0.10072474 0.93012524 0.42781562 -1.709119 1.3416891 -0.40510184
-0.8222595 -1.8034027 0.010444749 0.6719457 0.0047589163 -0.94134516 -2.243745 0.62776124
-0.77317053 -0.5822752 -0.8417474 0.22670045 -1.5854434 1.0231934 -1.6046202 -0.8738683
0.624693 -0.2631468 -0.10719484 -0.9539985 0.54394585 0.29149646 -0.18624444 -1.8571054
-0.38400838 0.6810106
