RPPOOP/HandGestureRecognition/model/keypoint_classifier/keypoint_classifier_sign.tflite (tflite, 6620 bytes, 6 tensors)

sequential/dense/BiasAdd/ReadVariableOp f4 [20]
-0.72495395 0.38308048 -0.020604478 -0.018477969 -0.49264708 -0.46501386 0.1887406 0.562929
-0.4118089 -0.4732485 -0.70714927 0.11470072 -0.62076426 -0.028655378 -0.053525575 0.38713795
-0.7394038 -0.12379119 -0.07653425 -0.8182726
00000000: 9596 39bf 2023 c43e b9ca a8bc 1c5f 97bc
00000010: 3d3c fcbe 4c16 eebe 3745 413e 1d1c 103f
00000020: 9ed8 d2be a14d f2be bc07 35bf 36e8 ea3d
00000030: 68ea 1ebf afbe eabc a23d 5bbd f236 c63e
00000040: 9149 3dbf 3c86 fdbd fdbd 9cbd 507a 51bf

sequential/dense_2/BiasAdd/ReadVariableOp f4 [7]
-0.7988715 1.0488408 -0.88939667 0.66848296 -0.18668714 -0.20077789 0.46445042
00000000: d882 4cbf 6a40 863f 80af 63bf b321 2b3f
00000010: ea2a 3fbe b898 4dbe 72cc ed3e

sequential/dense_1/BiasAdd/ReadVariableOp f4 [10]
0.1246936 0.039384212 0.07490963 1.1120607 -0.028641105 0.758133 -0.5376093 -0.7869995
0.56440216 -0.095977634
00000000: 5c5f ff3d 5751 213d 386a 993d 0158 8e3f
00000010: c0a0 eabc 0115 423f c3a0 09bf cd78 49bf
00000020: a97c 103f ec8f c4bd

sequential/dense/MatMul f4 [20, 42]
0.037762642 0.037149936 -0.56541365 0.7972364 -0.39291143 0.1161864 -0.3977139 0.06830597
-0.2669828 0.0960918 0.20726252 -0.19133627 0.13002431 -0.42939016 -0.121677175 -0.023001635
-0.14800215 0.060345788 0.28313324 -0.1678524 0.22007294 -0.14512691 -0.050076682 -0.006545722
-0.22905844 0.10108926 0.4378555 -0.17793092 0.15426746 -0.17664033 -0.37300467 0.009696779
-0.4945341 0.11544087 0.87088066 -0.11426582 -0.271603 -0.089686714 -1.0251851 -0.012621127
-1.2492727 0.08463025 0.023633897 0.19742829 -0.021582332 0.08677489 -0.28294724 -0.24266726
-0.024115477 -0.6532122 0.01326508 -0.5436754 -0.40683097 0.27068028 -0.06448358 -0.17955796
-0.15269132 0.09334549 -0.014606453 0.14654921 -0.38380265 0.30703062 -0.012259511 0.08986068
0.24121112 0.1780409 0.3191459 0.21489824 -0.36818525 0.084819354 -0.11283561 0.1177666
0.27617067 0.19110112 0.37905082 0.22599678 -0.36121106 0.0061317803 -0.29739293 0.027096892
-0.0063192206 0.22643158 0.08624956 0.22129671 0.26023573 -0.16061574 0.053359777 -1.3415623
0.067929894 -0.009549904 -0.1645473 0.15819788 -1.2697897 -0.10624803 0.47002283 0.08244985
0.2822667 0.095246196 0.16524374 0.108595826 0.076279506 0.16297647 0.6500971 0.0549592
0.35017258 0.049624257 0.11738164 -0.04172213 -0.11734508 -0.085101165 0.76293206 0.07279386
0.37995017 0.0308018 0.09709729 -0.057815533 -0.5202967 -0.20176582 -0.17926548 0.06913227
-0.1488426 0.02523655 0.09453469 -0.04884899 -0.14363916 -0.17954428 -0.30640224 0.18509418
0.33547017 0.2835254 0.11537215 -0.022919297 0.041565303 0.16166049 -0.1091791 0.3575545
0.21445021 0.24034578 0.062350437 0.2844115 -0.1285493 0.0032095485 -0.21292353 -0.44202402
0.14816636 0.24983849 -0.1942581 0.18427776 -0.15848488 0.15669067 -0.16615173 0.1263774
-0.45860285 0.23323381 -0.4585333 0.16745648 -0.35130247 0.114765935 -0.54665065 0.14248309
-1.377083 0.33215007 -1.0769924 0.2499284 -0.68272626 0.0123095615 -0.882669 0.1017922
-0.10908669 -0.17581755 -0.44519892 -0.865678 0.036173213 -0.64293295 0.35218564 -0.51423466
0.45841232 -0.34931588 -0.17084572 -0.30121645 -0.118768126 -0.16965804 0.21500902 0.0019255616
0.38873282 0.07159396 -0.19868071 -0.34045067 -0.2833074 -0.14345779 0.12886977 0.11512376
0.36100504 0.11499323 -0.10314807 -0.1608723 -0.38811585 -0.026220538 0.11717151 0.13366622
0.33246276 0.19052401 0.5820839 -0.22415063 -0.32730478 -0.023940422 -0.19408387 0.14754906
-0.10241619 0.2057307 0.022884935 -0.26882124 -0.6404881 0.39376116 -0.15852937 -0.07463744
0.0077852537 -0.41329676 0.20431581 -0.058010653 -0.26508924 -0.3549247 -0.17885408 -0.22451316
0.022310441 0.20260982 0.12876117 0.3583125 -0.21599305 -0.16235532 -0.47638798 -0.20402043
-0.46653938 0.0040341984 -0.16293883 0.2084423 -0.18640955 -0.27676633 -0.07853641 -0.0690947
0.11724163 0.00241466 0.38372806 0.110253595 0.9628235 -0.33423293 0.82535684 -0.08535772
0.90496254 0.042063724 1.139305 0.13451463 -0.18759663 0.23783463 -0.2704958 0.36028135
00000000: 00ad 1a3d 882a 183d f3be 10bf af17 4c3f
00000010: b02b c9be 23f3 ed3d 28a1 cbbe 00e4 8b3d
00000020: f8b1 88be c7cb c43d a03c 543e a8ed 43be
00000030: 1825 053e 07d9 dbbe e231 f9bd ed6d bcbc
00000040: e08d 17be 252d 773d d7f6 903e 80e1 2bbe
00000050: cd5a 613e 269c 14be 351d 4dbd 7f7d d6bb
00000060: 4c8e 6abe e307 cf3d 992e e03e 8633 36be
00000070: 4af8 1d3e 34e1 34be 78fa bebe 3ddf 1e3c
00000080: 9333 fdbe 436c ec3d 09f2 5e3f 3304 eabd
00000090: 8c0f 8bbe abad b7bd 4439 83bf d8c8 4ebc
000000a0: 2be8 9fbf a052 ad3d e09b c13c a42a 4a3e
000000b0: 6ecd b0bc 09b7 b13d 76de 90be c47d 78be
000000c0: d28d c5bc ea38 27bf c755 593c 502e 0bbf
000000d0: 264c d0be 9b96 8a3e f80f 84bd 0bde 37be
000000e0: 1d5b 1cbe ec2b bf3d e74f 6fbc ff10 163e
000000f0: c881 c4be 1e33 9d3e 1edc 48bc e008 b83d
00000100: 0c00 773e 5b50 363e 1767 a33e 490e 5c3e
00000110: c782 bcbe c5b5 ad3d 5b16 e7bd 9d2f f13d
00000120: 3e66 8d3e 03b0 433e f312 c23e b36b 673e
00000130: a8f0 b8be 1aed c83b e343 98be 4dfa dd3c
00000140: 7711 cfbb aedd 673e 9ca3 b03d 9b9b 623e
00000150: 9e3d 853e 7478 24be c88f 5a3d 50b8 abbf
00000160: d41e 8b3d 3377 1cbc 167f 28be a0fe 213e
00000170: 7888 a2bf 9198 d9bd d5a6 f03e 78db a83d
00000180: 4385 903e 7010 c33d a835 293e 7d67 de3d
00000190: 6e38 9c3d 4ee3 263e c36c 263f e61c 613d
000001a0: d249 b33e ce42 4b3d c965 f03d d3e4 2abd
000001b0: 9e52 f0bd 8549 aebd 844f 433f f314 953d
000001c0: d488 c23e 0e54 fc3c f2da c63d fbcf 6cbd
000001d0: 2a32 05bf b39b 4ebe 5f91 37be 3895 8d3d
000001e0: 326a 18be e2bc ce3c 679b c13d e115 48bd
000001f0: 2516 13be 75da 37be c1e0 9cbe 5489 3d3e
00000200: bfc2 ab3e 3e2a 913e 3c48 ec3d 40c1 bbbc
00000210: 6140 2a3d 548a 253e 4b99 dfbd 6211 b73e
00000220: d698 5b3e 341d 763e 2c63 7f3d 629e 913e
00000230: 6da2 03be 4a57 523b a008 5abe f950 e2be
00000240: ecb8 173e a9d5 7f3e 98eb 46be 4fb3 3c3e
00000250: dc49 22be 8573 203e ae23 2abe 1469 013e
00000260: fecd eabe d8d4 6e3e e0c4 eabe b679 2b3e
00000270: ebdd b3be 670a eb3d 4cf1 0bbf 16e7 113e
00000280: 4144 b0bf 930f aa3e e3da 89bf 3bed 7f3e
00000290: 26c7 2ebf 0bae 493c 98f6 61bf 6e78 d03d
000002a0: d868 dfbd 8409 34be 1df1 e3be 139d 5dbf
000002b0: 5d2a 143d 4197 24bf ad51 b43e e2a4 03bf
000002c0: 05b5 ea3e 88d9 b2be 2ef2 2ebe 0b39 9abe
000002d0: b43c f3bd d6ba 2dbe 532b 5c3e 2063 fc3a
000002e0: fd07 c73e db9f 923d f572 4bbe 8d4f aebe
000002f0: ab0d 91be 99e6 12be 70f6 033e 02c6 eb3d
00000300: a7d5 b83e 9281 eb3d 4c3f d3bd b5bb 24be
00000310: 1fb7 c6be 74cc d6bc 9ef7 ef3d ccdf 083e
00000320: 8f38 aa3e ba18 433e 7303 153f be87 65be
00000330: 7e94 a7be b41e c4bc ecbd 46be 1a17 173e
00000340: 94bf d1bd 12ab 523e 3079 bb3c f0a2 89be
00000350: 07f7 23bf 109b c93e 8655 22be 84db 98bd
00000360: 711b ff3b a29b d3be 2a38 513e 949c 6dbd
00000370: c7b9 87be b1b8 b5be 8625 37be c7e6 65be
00000380: 63c4 b63c f378 4f3e f8d9 033e bc74 b73e
00000390: 482d 5dbe 7940 26be 20e9 f3be bbea 50be
000003a0: 40de eebe 4f31 843b 70d9 26be e671 553e
000003b0: 25e2 3ebe 51b4 8dbe b3d7 a0bd 8681 8dbd
000003c0: 611c f03d 463f 1e3b 0178 c43e a3cc e13d
000003d0: 9a7b 763f 9420 abbe 964a 533f 07d0 aebd
000003e0: a0ab 673f 034b 2c3d bfd4 913f 34be 093e
000003f0: 5519 40be ec8a 733e 6d7e 8abe cc76 b83e

sequential/dense_1/MatMul f4 [10, 20]
0.19750771 -0.24770057 -0.32486004 -0.21531434 -0.3040323 0.614733 0.07252472 -0.8510006
0.58895314 1.0253634 0.44077963 -0.0867028 0.18493943 0.20944282 -0.5963817 -0.36390886
0.1199605 0.16281888 -0.10079453 0.8823312 0.09675802 -0.67903435 1.4933258 -0.061290078
-1.2929368 0.27772203 -0.8889853 0.006151558 -0.32762042 0.16393946 -0.3747815 0.13756044
0.22057247 0.77901 1.1428422 -0.4628802 0.1516793 -0.7962072 1.0478351 0.33937845
0.36373466 0.21699417 0.33284748 -0.06931547 0.90181977 1.239996 0.6011661 0.8396411
1.2458827 0.15940706 0.8371244 0.17969163 0.7401475 0.77097243 0.9415909 0.19307853
0.6153598 0.81049883 0.07790186 -0.076538935 0.3219912 0.26574332 -0.19434886 0.06286854
0.10308287 -0.18199281 -0.87639636 0.29801273 -0.22039288 -0.3324369 -0.40414533 0.43465778
-0.9784597 -0.1875406 0.13063315 0.3992682 -0.81983155 -0.17010021 -0.19817008 -0.15939213
0.046973497 0.96416074 -0.14518231 0.997822 0.5252537 0.1543217 -0.65867424 -0.74949044
0.06320249 0.20196916 0.48662704 1.0470691 0.13018203 -0.49203756 0.007663709 0.85155106
0.13239671 -0.2263233 -0.45780134 0.76409817 0.09088091 -0.6783295 -0.1519743 0.08771871
-0.8417732 -0.24553306 -0.5750204 0.049980234 -0.108550675 -0.25760576 -0.3581085 0.20699011
0.5095264 1.0644451 -0.7728418 -0.68030775 0.5278061 -0.37804008 0.070792735 0.35429087
-0.15933716 0.122031435 0.35598978 0.4224384 0.19835943 -0.31588104 0.6326535 0.5311716
0.08595296 0.6763234 -0.021955151 0.8319736 0.10217543 -0.083777264 0.34249568 0.42009288
0.06769691 0.7176712 0.85054904 0.036336895 0.9011234 -0.3547553 -0.15507472 -0.092350364
-0.061145514 -0.021707613 -0.03130367 -0.019356621 0.15031266 0.36512884 0.022812838 -0.152992
-0.05901693 0.19968925 -0.029801162 -0.065996304 -0.027616723 0.19744772 0.7900787 -0.6128359
0.18000156 0.28276536 0.13661185 0.046577867 -0.35059318 0.20766963 -0.22840832 -0.8446337
-0.05570954 0.80906945 0.09734234 0.11113325 0.0010252482 0.042048756 0.73291785 0.24994868
0.053438716 -0.6433051 0.99329084 -0.11940001 0.77053005 0.6416966 0.6254254 0.41201136
0.18310927 -0.09316818 -0.15406962 0.14752491 -0.3344125 -0.22343178 -0.076649085 0.6740779
0.20144908 -0.24532609 0.3476214 0.32006162 0.12197137 -0.29528514 -0.2239157 1.1877459
00000000: 763f 4a3e 38a5 7dbe 0e54 a6be 5d7b 5cbe
00000010: 1faa 9bbe 245f 1d3f d787 943d 2ddb 59bf
00000020: a2c5 163f 1c3f 833f dead e13e 3d91 b1bd
00000030: c360 3d3e 2e78 563e 79ac 18bf 4352 babe
00000040: daad f53d feb9 263e 5d6d cebd 75e0 613f
00000050: 1229 c63d 32d5 2dbf 4d25 bf3f 4e0b 7bbd
00000060: f47e a5bf 9531 8e3e 8a94 63bf 0293 c93b
00000070: ddbd a7be bfdf 273e 5ce3 bfbe a5dc 0c3e
00000080: c0dd 613e 336d 473f a748 923f a2fe ecbe
00000090: d251 1b3e 3cd4 4bbf 761f 863f 03c3 ad3e
000000a0: 6e3b ba3e b833 5e3e fc6a aa3e 45f5 8dbd
000000b0: a9dd 663f 30b8 9e3f 06e6 193f b8f2 563f
000000c0: 1679 9f3f 9b3b 233e c94d 563f 1501 383e
000000d0: 4e7a 3d3f 735e 453f 1a0c 713f 61b6 453e
000000e0: 3888 1d3f da7c 4f3f 038b 9f3d 72c0 9cbd
000000f0: 08dc a43e 820f 883e 6303 47be 39c1 803d
00000100: 1d1d d33d 535c 3abe 835b 60bf 2095 983e
00000110: acae 61be 2b35 aabe 23ec cebe 778b de3e
00000120: 567c 7abf a50a 40be b2c4 053e e26c cc3e
00000130: 7be0 51bf c02e 2ebe 19ed 4abe b137 23be
00000140: 4867 403d 3dd3 763f acaa 14be 4371 7f3f
00000150: 0777 063f 8206 1e3e e09e 28bf 9bde 3fbf
00000160: 4f70 813d 01d1 4e3e 2e27 f93e 5c06 863f
00000170: 704e 053e 59ec fbbe da1f fb3b 40ff 593f
00000180: 0193 073e 4cc1 67be f064 eabe f09b 433f
00000190: c51f ba3d 01a7 2dbf 279f 1bbe dea5 b33d
000001a0: 737e 57bf 056d 7bbe 8934 13bf 13b8 4c3d
000001b0: d14f debd e7e4 83be ff59 b7be 37f5 533e
000001c0: 5270 023f bd3f 883f f6d8 45bf a628 2ebf
000001d0: 4d1e 073f 788e c1be c8fb 903d 9d65 b53e
000001e0: 4829 23be 9eeb f93d 4b44 b63e d949 d83e
000001f0: bc1e 4b3e 29bb a1be 94f5 213f ddfa 073f
00000200: 1b08 b03d 8823 2d3f 4adb b3bc 39fc 543f
00000210: 5a41 d13d 6a93 abbd 985b af3e 6a16 d73e
00000220: ada4 8a3d 4db9 373f 95bd 593f ffd5 143d
00000230: 06b0 663f 7da2 b5be e8cb 1ebe 3022 bdbd
00000240: b873 7abd 2ad4 b1bc 4738 00bd c791 9ebc
00000250: 90eb 193e 2bf2 ba3e fde1 ba3c efa9 1cbe
00000260: bdbb 71bd 577b 4c3e 9121 f4bc 1229 87bd
00000270: 773c e2bc bc2f 4a3e 9942 4a3f d0e2 1cbf
00000280: 5452 383e 9fc6 903e fae3 0b3e 6fc8 3e3d
00000290: f380 b3be 59a7 543e dfe3 69be ea39 58bf
000002a0: b02f 64bd 2d1f 4f3f 6c5b c73d d499 e33d
000002b0: 9f61 863a 513b 2c3d 81a0 3b3f 8cf2 7f3e
000002c0: 8ee2 5a3d a5af 24bf 4f48 7e3f fe87 f4bd
000002d0: 7541 453f 3a46 243f e11b 203f 27f3 d23e
000002e0: ff80 3b3e f5ce bebd 6dc4 1dbe c510 173e
000002f0: 1d38 abbe 4dcb 64be 32fa 9cbd 5f90 2c3f
00000300: ab48 4e3e c336 7bbe 6ffb b13e 1edf a33e
00000310: 20cc f93d 9d2f 97be 284a 65be 0f08 983f

sequential/dense_2/MatMul f4 [7, 10]
-0.3415047 -0.6222641 0.48293787 -0.42903638 0.3805451 -1.1843512 0.582609 -0.3169949
0.028056849 0.44412586 -0.44525293 -0.79602057 0.39445323 0.2463283 -1.0684795 0.355976
-1.8855108 -1.6273257 -1.4413196 -1.2074192 -0.4963227 0.14833024 -0.7998106 -0.5843853
0.3782301 0.39551368 0.70129716 1.2772828 -1.017806 0.6084387 -0.958353 0.3757544
-0.046760745 0.047101304 -0.93557525 0.058455545 -1.0638674 -1.2796347 -0.11209292 0.50508904
0.7687979 -0.8813284 -0.03519496 -0.078435116 -0.0924085 -0.07953769 -0.81608766 0.29506412
-0.0840332 0.05705256 0.0065054134 0.7403925 -0.0017214465 -0.8195188 -1.1717788 -0.20666473
-0.37564987 -1.1346073 0.8413708 -1.1344312 -0.7468741 -0.91258246 -1.3679279 1.035129
0.4996944 -0.44135842 0.05450791 -0.63409853 0.9883903 0.18652174
00000000: b4d9 aebe b34c 1fbf a243 f73e a8aa dbbe
00000010: cfd6 c23e d298 97bf dd25 153f 284d a2be
00000020: 7ad7 e53c 7764 e33e 31f8 e3be 01c8 4bbf
00000030: c6f5 c93e 7c3d 7c3e f0c3 88bf 7c42 b63e
00000040: 6b58 f1bf 354c d0bf 297d b8bf b68c 9abf
00000050: 021e febe e2e3 173e 63c0 4cbf 469a 15bf
00000060: 60a7 c13e c580 ca3e 3688 333f 017e a33f
00000070: 7847 82bf a3c2 1b3f 9f56 75bf e162 c03e
00000080: 3288 3fbd 4ced 403d dc81 6fbf 156f 6f3d
00000090: cf2c 88bf 12cb a3bf f990 e5bd 844d 013f
000000a0: f0cf 443f bd9e 61bf 9728 10bd 97a2 a0bd
000000b0: ab40 bdbd a8e4 a2bd 1feb 50bf a512 973e
000000c0: 9919 acbd f2af 693d 5d2b d53b 5d8a 3d3f
000000d0: 29a2 e1ba fccb 51bf d9fc 95bf eb9f 53be
000000e0: 2e55 c0be d03a 91bf 1464 573f 0b35 91bf
000000f0: 2433 3fbf 019f 69bf 4318 afbf 1b7f 843f
00000100: f2d7 ff3e bbf9 e1be b043 5f3d 4854 22bf
00000110: 2607 7d3f 8eff 3e3e
