RPPOOP/HandGestureRecognition/model/keypoint_classifier/keypoint_classifier.tflite (tflite, 6488 bytes, 6 tensors)

sequential/dense/BiasAdd/ReadVariableOp f4 [20]
-0.417825 -0.48007005 0.083190426 -0.4726445 -0.59293675 -0.5541674 -0.6218314 -0.68896484
-0.776958 -0.4525836 -0.5019127 0.15026835 -0.4235057 -0.47294867 -0.41299644 -0.644214
-0.2712528 -0.48043555 -0.6651403 -0.56426513
00000000: 29ed d5be becb f5be be5f aa3d 76fe f1be
00000010: b4ca 17bf eadd 0dbf 5830 1fbf 0060 30bf
00000020: b8e6 46bf 0ab9 e7be 5a7d 00bf f2df 193e
00000030: bdd5 d8be 5426 f2be 4574 d3be 35eb 24bf
00000040: a6e1 8abe a6fb f5be a246 2abf ae73 10bf

sequential/dense_2/BiasAdd/ReadVariableOp f4 [4]
-0.5488118 -0.17204076 0.7416702 0.10509793
00000000: ee7e 0cbf 742b 30be 19de 3d3f 953d d73d

sequential/dense_1/BiasAdd/ReadVariableOp f4 [10]
-0.045921326 -0.27199048 0.3181039 0.20709565 0.6808931 -0.039462764 0.8059384 -0.07792272
-0.2703571 0.03304733
00000000: 0018 3cbd 5642 8bbe 84de a23e e210 543e
00000010: 034f 2e3f b5a3 21bd fb51 4e3f f295 9fbd
00000020: 3f6c 8abe a35c 073d

sequential/dense/MatMul f4 [20, 42]
-0.1924566 0.072573066 0.7095458 -0.11050637 0.5727166 -0.46131667 0.29369208 -0.6134491
0.2428016 -0.02257288 0.5044152 -0.20655142 0.3374695 0.028316146 0.022181943 0.13846838
-0.3281199 0.13446672 0.707397 -0.069334894 0.36428663 -0.023232404 -0.3326485 0.18662302
-0.4173975 0.18865457 0.71620405 -0.20417035 0.29979005 -0.004932303 -0.29481262 0.09118878
-0.2471355 0.08603444 0.50268495 -0.19029169 0.35870084 -0.13696004 0.041186765 -0.075628534
-0.32907203 0.025283895 0.013852984 0.15150672 0.027803892 0.1781652 -0.013391511 0.004717749
0.037062928 -0.3422556 0.014996603 -0.50367993 -0.11348274 0.112982176 -0.057325616 -0.05967822
0.0055136564 -0.0892956 -0.053658895 -0.18992431 -0.18928024 0.12128419 0.054873563 -0.17136285
-0.103533335 0.15055668 -0.04951365 0.34494892 -0.22216263 0.0084867785 0.058763854 -0.06279379
0.06131226 0.54616165 0.12702371 0.796743 -0.07101028 -0.22057617 0.10734707 -0.021197475
0.028760431 0.34128153 -0.25345603 0.7370204 -0.03855461 -0.1833677 0.14646515 0.8416827
0.05293535 0.39660063 0.04944111 0.33239844 -0.029830258 0.40615153 -0.22012275 0.09190145
-0.100025326 0.06328704 0.07356469 -0.07840313 0.051946055 -1.2506824 -0.35820076 0.11269817
-0.09428859 0.053749237 0.114745535 0.0630964 0.11884024 0.077800974 -0.19304961 0.12020986
-0.32625887 0.06195911 0.16621977 0.017956099 0.35936874 -0.0029332226 -0.0236145 0.115701996
-0.24648702 0.061702274 -0.15712719 0.05902869 0.27927974 0.007972052 0.05229655 -0.081091836
0.07206412 -0.8383225 -0.052342746 -0.3993202 0.009213465 -0.25559235 0.07285113 -0.32754293
0.38268226 -0.46519265 0.2992607 -0.26197317 0.024026748 0.057893954 -0.14334174 0.14345329
0.8854179 -0.4841877 0.18574429 -0.02585135 -0.17459017 0.17198375 -0.1417636 0.19644062
0.5457344 -0.29988238 -0.0034049733 -0.035136055 -0.2521842 0.22581512 -0.057450045 0.17524484
0.38648435 -0.38794175 -0.019095462 0.028530082 0.024364347 0.20067428 -0.0048618508 0.20973398
0.017201692 0.114601046 0.27494502 -0.15805814 0.21587662 0.050536904 0.33108756 -0.046093103
0.08150148 -0.64517 0.50234085 0.25089288 0.15596455 0.0710216 -0.12390938 0.073176846
-0.20753835 0.1129567 0.36968338 0.0780732 0.05382958 0.026246049 -0.27969393 0.13231607
-0.3535638 0.1386165 0.47648755 -0.27421352 0.20174903 -0.06944063 -0.1510956 0.13555805
-0.32564253 0.11188827 0.560513 -0.2852076 0.2885312 -0.29536575 -0.058318138 -0.005681439
-0.0034158446 0.06116652 0.13342318 0.05661404 0.6398561 -0.076805905 0.6414442 0.0048573557
0.66477567 0.0032189598 0.7235375 -0.032755096 0.10816134 0.15090217 0.019572435 0.06268507
-0.18547983 0.04549484 -0.17240739 0.059194647 0.21711856 0.018227672 0.2373675 0.0112084085
0.0011145929 0.05900272 -0.15199706 0.06240158 0.24895935 0.04398295 0.13105342 -0.035753194
-0.079707734 -0.04056296 -0.2606992 -0.08655262 -0.059454508 -0.106111206 0.002413377 -0.20417027
-0.27138507 -0.15073256 -0.70585775 -0.21469332 -0.22176906 0.041018337 -0.081002966 -0.08742563
00000000: 5813 45be 30a1 943d cba4 353f 2a51 e2bd
00000010: 8e9d 123f b331 ecbe cf5e 963e 000b 1dbf
00000020: fca0 783e c3ea b8bc 5b21 013f 3782 53be
00000030: cdc8 ac3e 43f7 e73c e8b6 b53c a8ca 0d3e
00000040: 55ff a7be a5b1 093e f817 353f 74ff 8dbd
00000050: c783 ba3e e251 bebc e750 aabe 1b1a 3f3e
00000060: 20b5 d5be aa2e 413e 2659 373f 0812 51be
00000070: 157e 993e 289f a1bb aef1 96be 2fc1 ba3d
00000080: 1711 7dbe d332 b03d f6af 003f d3db 42be
00000090: a3a7 b73e 413f 0cbe 74b3 283d 22e3 9abd
000000a0: 217c a8be 2c20 cf3c a0f7 623c 9424 1b3e
000000b0: fdc4 e33c f070 363e 1168 5bbc 5997 9a3b
000000c0: 4ccf 173d 203c afbe 50b4 753c 2bf1 00bf
000000d0: a469 e8bd 3363 e73d 44ce 6abd 2671 74bd
000000e0: e7ab b43b 9de0 b6bd 6ec9 5bbd 857b 42be
000000f0: aed2 41be d863 f83d 1ac3 603d be79 2fbe
00000100: 4909 d4bd 882b 1a3e d3ce 4abd 259d b03e
00000110: 9a7e 63be 210c 0b3c 5eb2 703d 089a 80bd
00000120: 9022 7b3d 40d1 0b3f 8112 023e 59f7 4b3f
00000130: d66d 91bd b8de 61be c8d8 db3d 54a6 adbc
00000140: ff9a eb3c 74bc ae3e fdc4 81be 5ead 3c3f
00000150: 70eb 1dbd bec4 3bbe f6fa 153e 8478 573f
00000160: bdd2 583d 3d0f cb3e c382 4a3d 2130 aa3e
00000170: 965e f4bc 18f3 cf3e dc67 61be d436 bc3d
00000180: 14da ccbd a39c 813d 16a9 963d d291 a0bd
00000190: 63c5 543d 5c16 a0bf 1766 b7be 4cce e63d
000001a0: 601a c1bd 2928 5c3d b5ff ea3d af38 813d
000001b0: 8362 f33d 1e56 9f3d ccae 45be 9630 f63d
000001c0: 670b a7be d6c8 7d3d 8435 2a3e ab18 933c
000001d0: 2eff b73e 4f3b 40bb 3273 c1bc 2bf5 ec3d
000001e0: 1867 7cbe 86bb 7c3d f3e5 20be 11c8 713d
000001f0: c1fd 8e3e 369d 023c e834 563d 7a13 a6bd
00000200: 5a96 933d 4e9c 56bf 5965 56bd b273 ccbe
00000210: 13f4 163c 00dd 82be f932 953d b5b3 a7be
00000220: eeee c33e bb2d eebe b338 993e 5921 86be
00000230: bed3 c43c 3622 6d3d 2dc8 12be 6be5 123e
00000240: bfaa 623f 73e7 f7be c033 3e3e 36c6 d3bc
00000250: c4c7 32be 821c 303e 7a2a 11be bb27 493e
00000260: 40b5 0b3f 2f8a 99be f925 5fbb d3ea 0fbd
00000270: 4a1e 81be 143c 673e bd50 6bbd 6273 333e
00000280: 47e1 c53e 4da0 c6be 166e 9cbc ebb7 e93c
00000290: bd97 c73c 8f7d 4d3e 2950 9fbb 81c4 563e
000002a0: 90ea 8c3c f4b3 ea3d 98c5 8c3e fed9 21be
000002b0: c30e 5d3e c9ff 4e3d 4f84 a93e 1fcc 3cbd
000002c0: 3fea a63d dc29 25bf 6999 003f 0875 803e
000002d0: 2cb5 1f3e c673 913d 33c4 fdbd bedd 953d
000002e0: ef84 54be d855 e73d 2447 bd3e d8e4 9f3d
000002f0: 687c 5c3d f401 d73c 0b34 8fbe dd7d 073e
00000300: 5006 b5be 7cf1 0d3e 2df6 f33e b765 8cbe
00000310: 4c97 4e3e e436 8ebd ceb8 1abe bbcf 0a3e
00000320: 9eba a6be ad25 e53d c87d 0f3f bb06 92be
00000330: 5dba 933e 2e3a 97be 00df 6ebd 5d2b babb
00000340: 5ddc 5fbb bf89 7a3d 16a0 083e 20e4 673d
00000350: 9ccd 233f 6a4c 9dbd b035 243f 742a 9f3b
00000360: bd2e 2a3f 2ff5 523b c139 393f 352a 06bd
00000370: b183 dd3d 1986 1a3e 5f56 a03c 0861 803d
00000380: 6dee 3dbe cc58 3a3d 908b 30be 1676 723d
00000390: 5454 5e3e 3352 953c 7710 733e 79a3 373c
000003a0: 8817 923a d6ac 713d 1ea5 1bbe cd98 7f3d
000003b0: 33ef 7e3e 7727 343d de32 063e f171 12bd
000003c0: cf3d a3bd 5925 26bd 5e7a 85be 8042 b1bd
000003d0: 9286 73bd d550 d9bd bf29 1e3b 0312 51be
000003e0: fcf2 8abe a359 1abe 18b3 34bf 91d8 5bbe
000003f0: 6e17 63be d802 283d e2e4 a5bd 350c b3bd

sequential/dense_1/MatMul f4 [10, 20]
-1.1074812 -0.019227937 0.16262528 0.7246469 -0.12853958 0.3058151 -0.38144258 -0.027221031
-0.53668535 -0.16599256 -0.25394014 0.1332917 0.16507308 0.21018894 -0.022363884 -0.66226035
-0.19868363 0.025514575 -0.37995696 0.9124679 -0.05591589 -0.09893536 0.432892 -0.13279898
0.20394585 0.81033945 0.06979152 0.54698175 0.827755 0.4633091 0.039958563 0.1612137
0.7143526 0.019602634 -0.22319897 0.9047426 0.16397165 0.14089338 0.14762004 0.027250508
0.18174629 0.7732203 0.85599923 0.54715973 -0.1535215 0.12493772 0.034429077 -0.08203
0.027863681 0.5183552 0.40465587 0.7800988 0.4386287 0.25738862 0.10432947 -0.45488766
0.7792415 -0.12072244 0.10487143 -0.6950223 -0.20727296 0.0005697996 0.0527092 -0.37484193
0.5858121 0.42070246 1.026935 1.0531447 0.16790305 -0.44292602 0.3303986 -0.15258707
-0.12400018 0.5646481 0.41367674 -0.5857511 -0.049522135 0.747425 0.75383556 0.21269086
0.72471046 0.4581584 1.4186095 0.7261096 0.5576466 0.82075113 -0.022018693 -0.26015928
0.506334 0.13535127 0.49570465 0.40330434 0.037523165 0.64203864 -0.836698 0.34232944
1.0687733 0.0027904797 -0.03952236 -0.28290156 0.16046512 0.5744854 -0.041466527 0.14733519
-0.1511685 0.6467071 0.4232588 -0.18848132 0.33689165 0.56509835 0.69746333 0.10693269
0.5212661 0.5161478 0.52487695 -0.28928378 0.261759 0.3826584 0.4600182 -0.3778259
-0.3552964 -0.69985765 -0.00033382457 0.26843327 -0.7315757 -0.7256868 0.32221264 0.39471373
-0.28691792 -0.7909296 -0.29958314 -0.36173 -0.6706611 -1.0251013 -0.21850431 -0.20997944
0.36768433 0.17686726 0.6027716 0.17908405 0.8583961 -0.18378736 0.115600936 0.44184527
0.99464554 0.35664323 -0.22253126 0.6618414 0.72415173 -0.28120932 -0.23859684 0.08957997
0.5111194 0.1582381 0.75035036 1.0374153 -0.009359475 0.4078265 -0.16023962 0.80752516
-0.18267383 -0.07166909 -0.11104886 0.38215905 0.047391158 0.06651486 0.24883871 -0.06733558
-0.13951612 -0.117397316 0.40624955 0.32659477 0.5410442 0.66780096 -0.4052935 -0.05092701
0.088942535 -0.12112798 -0.011256983 -0.15179 0.005025124 0.26101828 0.25585872 0.040058345
-0.10576848 0.034837753 0.79243016 0.4792967 -0.05414016 0.43270668 0.29665735 -0.7105619
0.60937554 -0.0945177 0.46347958 -0.19064079 0.2616346 0.69018 0.6662311 -0.23368293
00000000: f2c1 8dbf e883 9dbc 3e87 263e 7682 393f
00000010: e19f 03be cc93 9c3e 714c c3be a4fe debc
00000020: 3664 09bf f4f9 29be 7104 82be 9f7d 083e
00000030: eb08 293e c53b 573e 7734 b7bc e589 29bf
00000040: b973 4bbe f103 d13c b889 c2be 7f97 693f
00000050: 0f08 65bd 9f9e cabd 05a4 dd3e 75fc 07be
00000060: 2ed7 503e 6872 4f3f dbee 8e3d ff06 0c3f
00000070: c0e7 533f da36 ed3e 97ab 233d 3415 253e
00000080: d0df 363f b495 a03c 458e 64be 369d 673f
00000090: 2fe8 273e 5b46 103e b529 173e 753c df3c
000000a0: b31b 3a3e c4f1 453f c422 5b3f a912 0c3f
000000b0: bd34 1dbe 59df ff3d 8105 0d3d 58ff a7bd
000000c0: 6042 e43c edb2 043f 0e2f cf3e 8eb4 473f
000000d0: f193 e03e 71c8 833e b0aa d53d 09e7 e8be
000000e0: 5f7c 473f 543d f7bd d5c6 d63d fbec 31bf
000000f0: 5d3f 54be 9b5e 153a 9ae5 573d 48eb bfbe
00000100: c8f7 153f 5066 d73e 9b72 833f 72cd 863f
00000110: c7ee 2b3e 33c7 e2be 012a a93e c93f 1cbe
00000120: cef3 fdbd c78c 103f 70cd d33e c9f3 15bf
00000130: b9d7 4abd 3f57 3f3f 5efb 403f a2cb 593e
00000140: a086 393f bd93 ea3e ff94 b53f 52e2 393f
00000150: edc1 0e3f bf1c 523f 8c60 b4bc 9933 85be
00000160: 1b9f 013f 8699 0a3e 00cd fd3e e87d ce3e
00000170: e4b1 193d a55c 243f d731 56bf ce45 af3e
00000180: 90cd 883f 7be0 363b 33e2 21bd 79d8 90be
00000190: f850 243e 7a11 133f ced8 29bd 09df 163e
000001a0: eacb 1abe 998e 253f 61b5 d83e 3f01 41be
000001b0: 107d ac3e 49aa 103f f58c 323f 87ff da3d
000001c0: b271 053f 4322 043f 565e 063f 011d 94be
000001d0: 4705 863e cdeb c33e 8187 eb3e 6572 c1be
000001e0: 69e9 b5be df29 33bf 2d05 afb9 1670 893e
000001f0: 8c48 3bbf 9cc6 39bf 0ef9 a43e eb17 ca3e
00000200: e8e6 92be 5d7a 4abf f662 99be ad34 b9be
00000210: 72b0 2bbf 8536 83bf 98bf 5fbe da04 57be
00000220: 1f41 bc3e b11c 353e 3d4f 1a3f cf61 373e
00000230: d9bf 5b3f c132 3cbe 2fc0 ec3d 8b39 e23e
00000240: 17a1 7e3f f199 b63e 3cdf 63be 706e 293f
00000250: 0262 393f abfa 8fbe bb52 74be b475 b73d
00000260: b9d8 023f 2b09 223e f616 403f 06ca 843f
00000270: 7c58 19bc a3ce d03e db15 24be f8b9 4e3f
00000280: d90e 3bbe 3ec7 92bd 966d e3bd 5aaa c33e
00000290: 3b1d 423d f138 883d 93cf 7e3e 3de7 89bd
000002a0: 50dd 0ebe 016e f0bd f1ff cf3e 6e37 a73e
000002b0: df81 0a3f 01f5 2a3f a182 cfbe d798 50bd
000002c0: 8127 b63d f211 f8bd 356f 38bc d66e 1bbe
000002d0: cca9 a43b 30a4 853e eaff 823e 3814 243d
000002e0: 259d d8bd 08b2 0e3d b4dc 4a3f 6166 f53e
000002f0: 13c2 5dbd bb8b dd3e 79e3 973e 62e7 35bf
00000300: 0900 1c3f 7f92 c1bd 324d ed3e 5737 43be
00000310: f8f4 853e a3af 303f 1f8e 2a3f 944a 6fbe

sequential/dense_2/MatMul f4 [4, 10]
-0.7641005 0.17797118 0.781745 0.12512627 -0.021807585 1.0560998 -0.9258738 -0.4598305
0.69824183 0.16551434 1.1348872 0.55571383 -0.18718609 0.12906405 0.06354809 -0.39110252
-1.0289637 1.2325778 0.35905907 -0.843462 -0.47850823 -0.9202064 0.68879193 -2.009958
0.44867557 -0.3718753 0.38514063 -0.9146435 -1.6269534 -1.1098709 -0.3124267 -0.65274495
-1.4677945 0.57680464 -1.9674433 0.10743917 0.5768299 -0.80072993 0.44703284 -0.18158208
00000000: 179c 43bf 143e 363e 7120 483f 1a21 003e
00000010: d2a5 b2bc 472e 873f 1106 6dbf e76e ebbe
00000020: fabf 323f 977c 293e fc43 913f 4343 0e3f
00000030: b6ad 3fbe 5e29 043e 8025 823d 973e c8be
00000040: 15b5 83bf 1cc5 9d3f 97d6 b73e 20ed 57bf
00000050: 08ff f4be a692 6bbf ab54 303f 27a3 00c0
00000060: ceb8 e53e 7066 bebe 2731 c53e 1426 6abf
00000070: 0240 d0bf 4010 8ebf 64f6 9fbe 4b1a 27bf
00000080: b1e0 bbbf 78a9 133f 2fd5 fbbf 1109 dc3d
00000090: 20ab 133f a3fc 4cbf 7de1 e43e a7f0 39be
